…
            '204[1][0]_0': {}, '204[1][0]_1': {}, '204a[0]_0': {}, '204a[0]_1': {}, '204a[0]_2': {}, '55b_0': {},
            '55b_1': {}, '55b_2': {}}, 'total': 0}, '273': {'lanes': {'103_0': [], '103_1': [], '104_0': [], '104_1':
            [], '15_0': []}, 'longest_waiting_time_car_in_lane': {'103_0': {}, '103_1': {}, '104_0': {}, '104_1': {},
            '15_0': {}}, 'total': 0}}}
        </state>
        <agents>
            &lt;tr&gt;
            &lt;td&gt;08ce5096-f674-45c3-b038-bdf48f22a8ea&lt;/td&gt;
            &lt;td&gt;209&lt;/td&gt;
            &lt;td&gt;DQN: DQN.Params(observations=35, actions=2, policy_net=SimpleNetwork(
            (layers): ModuleList(
            (0): Linear(in_features=35, out_features=64, bias=True)
            (1): Linear(in_features=64, out_features=64, bias=True)
            (2): Linear(in_features=64, out_features=2, bias=True)
            (3): Sigmoid()
            )
            ), target_net=SimpleNetwork(
            (layers): ModuleList(
            (0): Linear(in_features=35, out_features=64, bias=True)
            (1): Linear(in_features=64, out_features=64, bias=True)
            (2): Linear(in_features=64, out_features=2, bias=True)
            (3): Sigmoid()
            )
            ), optimizer=Adam (
            Parameter Group 0
            amsgrad: False
            betas: (0.9, 0.999)
            capturable: False
            differentiable: False
            eps: 1e-08
            foreach: None
            fused: None
            lr: 0.001
            maximize: False
            weight_decay: 0
            ), memory=&lt;experiments.models.components.memory.ReplayMemory object at 0x11d838bb0&gt;, EPS_START=0.9,
            EPS_END=0.05, EPS_DECAY=200, GAMMA=0.999, BATCH_SIZE=128)&lt;/td&gt;
            &lt;td&gt;['0', 'utopia']&lt;/td&gt;
            &lt;/tr&gt;
            ,
            &lt;tr&gt;
            &lt;td&gt;08ce5096-f674-45c3-b038-bdf48f22a8ea&lt;/td&gt;
            &lt;td&gt;210&lt;/td&gt;
            &lt;td&gt;DQN: DQN.Params(observations=119, actions=2, policy_net=SimpleNetwork(
            (layers): ModuleList(
            (0): Linear(in_features=119, out_features=64, bias=True)
            (1): Linear(in_features=64, out_features=64, bias=True)
            (2): Linear(in_features=64, out_features=2, bias=True)
            (3): Sigmoid()
            )
            ), target_net=SimpleNetwork(
            (layers): ModuleList(
            (0): Linear(in_features=119, out_features=64, bias=True)
            (1): Linear(in_features=64, out_features=64, bias=True)
            (2): Linear(in_features=64, out_features=2, bias=True)
            (3): Sigmoid()
            )
            ), optimizer=Adam (
            Parameter Group 0
            amsgrad: False
            betas: (0.9, 0.999)
            capturable: False
            differentiable: False
            eps: 1e-08
            foreach: None
            fused: None
            lr: 0.001
            maximize: False
            weight_decay: 0
            ), memory=&lt;experiments.models.components.memory.ReplayMemory object at 0x11d838bb0&gt;, EPS_START=0.9,
            EPS_END=0.05, EPS_DECAY=200, GAMMA=0.999, BATCH_SIZE=128)&lt;/td&gt;
            &lt;td&gt;['0', 'utopia']&lt;/td&gt;
            &lt;/tr&gt;
            ,
            &lt;tr&gt;
            &lt;td&gt;08ce5096-f674-45c3-b038-bdf48f22a8ea&lt;/td&gt;
            &lt;td&gt;219&lt;/td&gt;
            &lt;td&gt;DQN: DQN.Params(observations=84, actions=2, policy_net=SimpleNetwork(
            (layers): ModuleList(
            (0): Linear(in_features=84, out_features=64, bias=True)
            (1): Linear(in_features=64, out_features=64, bias=True)
            (2): Linear(in_features=64, out_features=2, bias=True)
            (3): Sigmoid()
            )
            ), target_net=SimpleNetwork(
            (layers): ModuleList(
            (0): Linear(in_features=84, out_features=64, bias=True)
            (1): Linear(in_features=64, out_features=64, bias=True)
            (2): Linear(in_features=64, out_features=2, bias=True)
            (3): Sigmoid()
            )
            ), optimizer=Adam (
            Parameter Group 0
            amsgrad: False
            betas: (0.9, 0.999)
            capturable: False
            differentiable: False
            eps: 1e-08
            foreach: None
            fused: None
            lr: 0.001
            maximize: False
            weight_decay: 0
            ), memory=&lt;experiments.models.components.memory.ReplayMemory object at 0x11d838bb0&gt;, EPS_START=0.9,
            EPS_END=0.05, EPS_DECAY=200, GAMMA=0.999, BATCH_SIZE=128)&lt;/td&gt;
            &lt;td&gt;['0', 'utopia']&lt;/td&gt;
            &lt;/tr&gt;
            ,
            &lt;tr&gt;
            &lt;td&gt;08ce5096-f674-45c3-b038-bdf48f22a8ea&lt;/td&gt;
            &lt;td&gt;220&lt;/td&gt;
            &lt;td&gt;DQN: DQN.Params(observations=70, actions=2, policy_net=SimpleNetwork(
            (layers): ModuleList(
            (0): Linear(in_features=70, out_features=64, bias=True)
            (1): Linear(in_features=64, out_features=64, bias=True)
            (2): Linear(in_features=64, out_features=2, bias=True)
            (3): Sigmoid()
            )
            ), target_net=SimpleNetwork(
            (layers): ModuleList(
            (0): Linear(in_features=70, out_features=64, bias=True)
            (1): Linear(in_features=64, out_features=64, bias=True)
            (2): Linear(in_features=64, out_features=2, bias=True)
            (3): Sigmoid()
            )
            ), optimizer=Adam (
            Parameter Group 0
            amsgrad: False
            betas: (0.9, 0.999)
            capturable: False
            differentiable: False
            eps: 1e-08
            foreach: None
            fused: None
            lr: 0.001
            maximize: False
            weight_decay: 0
            ), memory=&lt;experiments.models.components.memory.ReplayMemory object at 0x11d838bb0&gt;, EPS_START=0.9,
            EPS_END=0.05, EPS_DECAY=200, GAMMA=0.999, BATCH_SIZE=128)&lt;/td&gt;
            &lt;td&gt;['0', 'utopia']&lt;/td&gt;
            &lt;/tr&gt;
            ,
            &lt;tr&gt;
            &lt;td&gt;08ce5096-f674-45c3-b038-bdf48f22a8ea&lt;/td&gt;
            &lt;td&gt;221&lt;/td&gt;
            &lt;td&gt;DQN: DQN.Params(observations=140, actions=2, policy_net=SimpleNetwork(
            (layers): ModuleList(
            (0): Linear(in_features=140, out_features=64, bias=True)
            (1): Linear(in_features=64, out_features=64, bias=True)
            (2): Linear(in_features=64, out_features=2, bias=True)
            (3): Sigmoid()
            )
            ), target_net=SimpleNetwork(
            (layers): ModuleList(
            (0): Linear(in_features=140, out_features=64, bias=True)
            (1): Linear(in_features=64, out_features=64, bias=True)
            (2): Linear(in_features=64, out_features=2, bias=True)
            (3): Sigmoid()
            )
            ), optimizer=Adam (
            Parameter Group 0
            amsgrad: False
            betas: (0.9, 0.999)
            capturable: False
            differentiable: False
            eps: 1e-08
            foreach: None
            fused: None
            lr: 0.001
            maximize: False
            weight_decay: 0
            ), memory=&lt;experiments.models.components.memory.ReplayMemory object at 0x11d838bb0&gt;, EPS_START=0.9,
            EPS_END=0.05, EPS_DECAY=200, GAMMA=0.999, BATCH_SIZE=128)&lt;/td&gt;
            &lt;td&gt;['0', 'utopia']&lt;/td&gt;
            &lt;/tr&gt;
            ,
            &lt;tr&gt;
            &lt;td&gt;08ce5096-f674-45c3-b038-bdf48f22a8ea&lt;/td&gt;
            &lt;td&gt;235&lt;/td&gt;
            &lt;td&gt;DQN: DQN.Params(observations=112, actions=2, policy_net=SimpleNetwork(
            (layers): ModuleList(
            (0): Linear(in_features=112, out_features=64, bias=True)
            (1): Linear(in_features=64, out_features=64, bias=True)
            (2): Linear(in_features=64, out_features=2, bias=True)
            (3): Sigmoid()
            )
            ), target_net=SimpleNetwork(
            (layers): ModuleList(
            (0): Linear(in_features=112, out_features=64, bias=True)
            (1): Linear(in_features=64, out_features=64, bias=True)
            (2): Linear(in_features=64, out_features=2, bias=True)
            (3): Sigmoid()
            )
            ), optimizer=Adam (
            Parameter Group 0
            amsgrad: False
            betas: (0.9, 0.999)
            capturable: False
            differentiable: False
            eps: 1e-08
            foreach: None
            fused: None
            lr: 0.001
            maximize: False
            weight_decay: 0
…
